Hope/data.pth (torch, 4503 bytes, 6 tensors)

l1.weight f4 [8, 40]
-0.50984126 0.46494448 0.26531255 -0.23697394 -0.21991947 -0.34875914 0.7246768 0.5188927
-0.142729 -0.8144507 -0.20759751 -0.27524468 -0.39948428 0.65331286 0.62600285 0.41810003
0.37937033 0.3090672 0.2599552 0.7582916 -0.18264176 -0.66805476 -0.5096461 -0.48441452
0.5766987 0.50939256 -0.24958792 0.5246837 0.32838753 0.9492077 0.049874563 0.18386936
0.065707855 -0.27374792 -0.5101376 0.18918924 0.5250369 0.5657058 -0.18398365 -0.50997955
0.16134143 0.02491911 0.31508794 0.45968935 0.43706304 0.43900818 0.7820332 0.13317923
0.29060996 -0.121605195 0.3760699 0.46617794 -0.23215243 -0.009088936 0.3079945 0.61430854
0.48309374 0.20126064 0.33275974 0.029335089 0.32629994 0.15404548 0.52134204 0.45517603
0.48773652 -0.50496995 -0.374902 0.35140094 0.11101056 0.014352803 0.26678678 -0.41553363
0.3948167 0.25110704 -0.11452054 -0.17740975 0.018584013 0.088357374 -0.037952624 -0.3187649
0.19564348 -0.25457233 -0.14673938 0.43823913 0.23337214 0.24575336 -0.5415393 -0.18206131
0.21158314 0.7583349 0.33003992 0.43378997 0.4270792 -0.31407234 -0.20572613 -0.11315858
-0.28415248 -0.3939918 0.11845985 -0.16462599 0.25648403 0.7868343 0.4737788 0.331784
-0.39681152 -0.38968515 0.74158794 -0.2824873 -0.30780375 -0.4188405 0.37096465 0.58188957
0.49765596 0.28462332 0.14449549 0.34557095 -0.25443178 0.030799367 0.19641954 0.8075927
-0.21923245 -0.3067374 -0.028791288 0.34674025 0.21707802 0.45290497 -0.42152512 -0.23350106
0.4473789 0.6284327 0.54410183 0.44861302 0.62272507 -0.16454948 -0.12146049 -0.17455018
-0.39121902 -0.11059172 0.0877954 -0.10891696 0.2077097 0.7115612 0.42769277 0.55661684
-0.30224755 -0.04614981 -0.1806954 -0.10774351 -0.079193264 -0.33207014 0.5880867 0.61135185
0.21939307 0.18685342 -0.3634319 0.5045879 -0.2054285 -0.048000757 0.6025788 0.61686355
0.59689885 0.61810297 -0.049438447 -0.24608625 -0.0927545 -0.5287368 -0.32230863 0.5881462
-0.30728748 0.600063 -0.38191527 -0.36376354 -0.54145604 0.6048164 0.5992088 -0.18857576
-0.2843358 0.2818836 -0.16521446 0.6565231 -0.2105334 -0.62625945 -0.45638224 -0.45648262
-0.023598911 -0.45654482 0.8462787 0.3311319 0.3013437 0.76994604 -0.3754369 0.77857476
0.54521674 -0.21033013 0.45473918 0.7614894 0.35939434 0.24763708 -0.95319885 -0.077961214
-0.52185214 0.2462465 0.18136826 0.44625053 0.5477942 0.013695054 0.06015324 0.16695057
-0.05867724 -0.40503892 -0.18330914 0.43849587 -0.21361259 0.4233071 0.24267834 -0.11741934
-0.20217775 -0.43919986 0.006740669 0.32577124 0.35642284 -0.19125055 0.59182644 0.54615897
0.085591435 1.0162144 -0.68705785 0.10560223 -0.5179955 -0.14269838 0.055888 -0.24234737
-0.24716112 0.4859627 -0.50650907 -0.3120514 0.055596944 0.17050235 0.43269292 0.21901564
0.85296994 0.13256769 0.06729495 -0.416416 -0.30867597 0.4751381 -0.4985665 0.37841347
0.40671667 0.3063424 0.2766611 -0.2535451 0.55231404 0.20933999 0.18222876 -0.09723133
00000000: f584 02bf 340d ee3e 0cd7 873e 4ca9 72be
00000010: 9232 61be 8f90 b2be 6b84 393f 27d6 043f
00000020: 8d27 12be d77f 50bf 7194 54be dfec 8cbe
00000030: 3489 ccbe 833f 273f b941 203f 3511 d63e
00000040: d43c c23e 0e3e 9e3e d918 853e 661f 423f
00000050: 7106 3bbe a305 2bbf 2b78 02bf 2e05 f8be
00000060: 87a2 133f 8d67 023f fa93 7fbe ac51 063f
00000070: 6922 a83e 47ff 723f 4549 4c3d 4048 3c3e
00000080: d791 863d b028 8cbe 6198 02bf d3ba 413e
00000090: d168 063f 18d2 103f 3666 3cbe 058e 02bf
000000a0: b036 253e 2923 cc3c 3553 a13e 675c eb3e
000000b0: bac6 df3e aec5 e03e 5433 483f 2360 083e
000000c0: d4ca 943e 250c f9bd 3c8c c03e e0ae ee3e
000000d0: 5eb9 6dbe c3e9 14bc 75b1 9d3e 5343 1d3f
000000e0: 1058 f73e 4517 4e3e 7c5f aa3e 2450 f03c
000000f0: c910 a73e 19be 1d3e ac76 053f d50c e93e
00000100: 9ab8 f93e b645 01bf 28f3 bfbe d3ea b33e
00000110: 8159 e33d 0528 6b3c 4798 883e d3c0 d4be
00000120: 6a25 ca3e 1a91 803e bf89 eabd e7aa 35be
00000130: 803d 983c b6f4 b43d 3674 1bbd 2735 a3be
00000140: c456 483e 4e57 82be d942 16be e160 e03e
00000150: 1bf9 6e3e c5a6 7b3e 52a2 0abf 486e 3abe
00000160: 40a9 583e 3c22 423f fefa a83e b819 de3e
00000170: 20aa da3e 17ce a0be dfa9 52be b0bf e7bd
00000180: 6f7c 91be 4bb9 c9be 149b f23d b793 28be
00000190: e051 833e f96d 493f 2393 f23e 98df a93e
000001a0: e12a cbbe d084 c7be b5d8 3d3f 2da2 90be
000001b0: 7498 9dbe 4372 d6be 14ef bd3e b7f6 143f
000001c0: c3cc fe3e 26ba 913e a0f6 133e adee b03e
000001d0: e244 82be f44e fc3c 3422 493e 65be 4e3f
000001e0: 797e 60be af0c 9dbe b5db ebbc f087 b13e
000001f0: b349 5e3e 29e3 e73e 24d2 d7be e71a 6fbe
00000200: d90e e53e f7e0 203f 424a 0b3f 9bb0 e53e
00000210: e96a 1f3f a97f 28be 47c0 f8bd 48bd 32be
00000220: dc4d c8be e97d e2bd 13ce b33d db0f dfbd
00000230: dab1 543e e028 363f 8cfa da3e 717e 0e3f
00000240: 31c0 9abe 9507 3dbd 3708 39be a1a8 dcbd
00000250: 1430 a2bd 1905 aabe da8c 163f 8e81 1c3f
00000260: 94a8 603e 8156 3f3e bf13 babe ac2c 013f
00000270: d95b 52be 719c 44bd 9b42 1a3f c5ea 1d3f
00000280: 5dce 183f ff3b 1e3f f87f 4abd 09fe 7bbe
00000290: 12f6 bdbd 4c5b 07bf a305 a5be c090 163f
000002a0: c954 9dbe bb9d 193f 668a c3be 373f babe
000002b0: dd9c 0abf 3fd5 1a3f bf65 193f 011a 41be
000002c0: 7694 91be 0c53 903e fb2d 29be e611 283f
000002d0: 1196 57be 8a52 20bf efaa e9be 17b8 e9be
000002e0: 8152 c1bc 3ec0 e9be b9a5 583f 1f8a a93e
000002f0: b949 9a3e 2f1b 453f 4439 c0be ad50 473f
00000300: 5393 0b3f c860 57be 93d3 e83e f8f0 423f
00000310: 8902 b83e 9394 7d3e d704 74bf 21aa 9fbd
00000320: 1a98 05bf 0b28 7c3e 9ab8 393e f37a e43e
00000330: 3e3c 0c3f 3861 603c 3e63 763d 17f5 2a3e
00000340: 8c57 70bd 4361 cfbe 64b5 3bbe 8882 e03e
00000350: 42bd 5abe b5bb d83e ac80 783e 8d79 f0bd
00000360: af07 4fbe cede e0be d4e0 dc3b 7dcb a63e
00000370: 0e7d b63e 2fd7 43be f081 173f 13d1 0b3f
00000380: 904a af3d 5013 823f 06e3 2fbf fb45 d83d
00000390: 5a9b 04bf 861f 12be d1ea 643d e929 78be
000003a0: ce17 7dbe 1ad0 f83e 94aa 01bf 33c5 9fbe
000003b0: 9fb9 633d 2b98 2e3e ed89 dd3e a345 603e
000003c0: 3d5c 5a3f d3bf 073e efd1 893d 7a34 d5be
000003d0: c70a 9ebe 4d45 f33e 1c44 ffbe 69bf c13e
000003e0: 2b3d d03e e9d8 9c3e 86a6 8d3e aad0 81be
000003f0: 7464 0d3f 395d 563e 2d9a 3a3e 3821 c7bd

l1.bias f4 [8]
0.51007456 0.71458584 0.70166075 0.7254688 0.45650437 0.9572133 0.7341565 0.6569669
00000000: 3f94 023f 19ef 363f 0aa0 333f 53b8 393f
00000010: f1ba e93e ee0b 753f aef1 3b3f fc2e 283f

l2.weight f4 [8, 8]
-0.4641518 0.3740184 0.2802543 0.6851155 -0.3027185 -1.1034446 1.2245483 0.13203496
-0.49324042 -0.018976346 0.7383528 0.70026624 0.14961526 -0.15507741 1.4058894 -1.5306159
-0.144958 0.9524774 0.97203135 0.9964937 0.21025437 0.18065496 -1.009196 1.0443597
0.61985266 1.2342641 -0.27055883 -0.28819805 -0.22451961 1.1556388 0.8258744 1.3282132
-0.9896917 -0.7553753 0.80213094 0.31888148 0.98726606 -0.45660287 0.20550218 0.79430574
0.0004353881 0.21587792 0.45411733 0.944185 -1.5524167 1.2711895 0.19747049 -0.451975
-0.8204729 0.3071993 0.96432984 1.1142911 -0.7889576 1.0870435 0.5582936 -0.047396637
0.9479965 -0.32903364 0.004919394 0.48981646 1.5277095 0.4173927 0.7843468 -1.0364816
00000000: 4ea5 edbe 577f bf3e 7e7d 8f3e bb63 2f3f
00000010: ebfd 9abe ac3d 8dbf 00be 9c3f 2c34 073e
00000020: 028a fcbe 4874 9bbc b004 3d3f a644 333f
00000030: be34 193e 9dcc 1ebe 2ff4 b33f 39eb c3bf
00000040: df6f 14be 8fd5 733f 0cd7 783f 361a 7f3f
00000050: ec4c 573e 9dfd 383e 562d 81bf 94ad 853f
00000060: aaae 1e3f 5efc 9d3f b086 8abe b28e 93be
00000070: 78e8 65be f9eb 933f 816c 533f e402 aa3f
00000080: 6f5c 7dbf 4760 41bf 7458 4d3f 6f44 a33e
00000090: 78bd 7c3f dac7 e9be 2a6f 523e 9f57 4b3f
000000a0: cd44 e439 1a0f 5d3e 1182 e83e 1cb6 713f
000000b0: 97b5 c6bf 56b6 a23f b435 4a3e 4469 e7be
000000c0: 830a 52bf 3a49 9d3e 52de 763f 17a1 8e3f
000000d0: 20f9 49bf 3e24 8b3f 54ec 0e3f fa22 42bd
000000e0: e6af 723f 1977 a8be de32 a13b 39c9 fa3e
000000f0: fc8b c33f 7fb4 d53e f4ca 483f 6eab 84bf

l2.bias f4 [8]
0.15371136 0.23810771 0.20379278 0.78385246 0.19226587 0.38459593 0.34089488 0.6901307
00000000: 8366 1d3e 82d2 733e 0eaf 503e 8eaa 483f
00000010: 58e1 443e c2e9 c43e c689 ae3e 68ac 303f

l3.weight f4 [9, 8]
0.38980553 -0.71842545 -0.105581634 0.26061496 0.51867616 -0.84602994 0.13018522 -0.42853728
-1.1047444 -1.6795797 -0.8362402 0.6112841 -1.4107103 -0.2923851 -1.160624 0.7437933
-0.9261384 -1.2004336 0.50270975 0.76610297 -1.1790918 -0.8498564 -0.9462048 -1.0863496
-0.8766172 -0.21456091 0.16842769 -1.073177 0.23314965 -0.13079037 -1.3561984 0.8311437
0.5709502 0.35306686 -1.1151797 -0.05879045 -1.7928053 -0.77028394 -0.22261377 0.3368648
0.76432407 0.16830516 -0.3564948 -0.97448653 -0.30546793 0.7630112 0.36199605 -0.4070261
-1.2553401 -0.06965986 -1.1895325 0.100197285 -1.3920976 0.8891164 0.33667517 0.20823182
0.027937185 0.23891163 -0.08233238 -1.4673625 0.69249356 -0.42975178 0.110481486 0.035241887
-0.86943936 -1.2809533 0.7207193 -0.0972249 -0.9843019 0.5470539 0.67437094 -0.9392315
00000000: 9794 c73e bbea 37bf 2f3b d8bd 536f 853e
00000010: f6c7 043f 6b95 58bf 464f 053e 3d69 dbbe
00000020: 4468 8dbf 78fc d6bf d613 56bf 1d7d 1c3f
00000030: 2892 b4bf 80b3 95be 548f 94bf 3d69 3e3f
00000040: 6817 6dbf cfa7 99bf 96b1 003f 531f 443f
00000050: 7bec 96bf 3090 59bf 7a3a 72bf 810d 8bbf
00000060: fc69 60bf dbb5 5bbe 4f78 2c3e dd5d 89bf
00000070: c8be 6e3e e9ed 05be e997 adbf d5c5 543f
00000080: cb29 123f 2ec5 b43e 35be 8ebf 41ce 70bd
00000090: a57a e5bf 5431 45bf ddf4 63be 8b79 ac3e
000000a0: beaa 433f 3058 2c3e 7d86 b6be f377 79bf
000000b0: 4b66 9cbe b454 433f 8c57 b93e ba65 d0be
000000c0: fcae a0bf d4a9 8ebd 9a42 98bf 3c34 cd3d
000000d0: 4130 b2bf 229d 633f b060 ac3e b93a 553e
000000e0: 86dc e43c 40a5 743e e19d a8bd 89d2 bbbf
000000f0: 4247 313f 6d08 dcbe 1e44 e23d cc59 103d
00000100: 9493 5ebf 47f6 a3bf 0f81 383f d91d c7bd
00000110: 36fb 7bbf b90b 0c3f 93a3 2c3f 7a71 70bf

l3.bias f4 [9]
0.3110129 0.42446795 0.22006264 0.13213429 0.29685774 -0.34979334 -0.057243608 -0.46316925
0.14376058
00000000: 153d 9f3e dd53 d93e 1a58 613e 364e 073e
00000010: bdfd 973e 1d18 b3be 4678 6abd 8524 edbe
00000020: f935 133e
