Hope/data.pth (torch, 4503 bytes, 6 tensors)

l1.weight f4 [8, 40]
0	0x3eff78a5	0.49896732
1	0x3ebcf697	0.36906883
2	0x3edaae26	0.4271099
3	0xbe3d746c	-0.18501443
4	0xbeae3940	-0.34028053
5	0x3ee88081	0.4541054
6	0x3f2a0eb3	0.6642868
7	0x3ea1b481	0.31583026
8	0x3eb8c7e2	0.36089998
9	0xbe69a6e2	-0.22817567
10	0x3e9365ac	0.28788507
11	0xbe9b33aa	-0.30312854
12	0x3e771107	0.24127589
13	0x3ef1e9f0	0.47248793
14	0x3ede9c6a	0.4347871
15	0x3f216788	0.630486
16	0x3ef9a444	0.48758137
17	0xbe80ddfa	-0.25169355
18	0x3f18745c	0.5955255
19	0x3edddaaf	0.43330905
20	0xbe18b0a5	-0.14911135
21	0x3ed455d8	0.41471744
22	0xbec80801	-0.39068606
23	0xbefa16e0	-0.48845577
24	0x3f03649f	0.5132541
25	0x3f3cea19	0.73794705
26	0xbe8a4aa3	-0.27010068
27	0x3f18ecbb	0.5973622
28	0xbe6c6b76	-0.23087868
29	0xbea94c9c	-0.3306626
30	0x3e8825f1	0.26591447
31	0xbee2df58	-0.44311023
32	0x3ef8157a	0.48453885
33	0xbe94805a	-0.29004174
34	0x3f4ba208	0.79544115
35	0x3d6487b5	0.055793483
36	0x3eb6f231	0.35731652
37	0x3dcb88e4	0.09938219
38	0xbdb5122d	-0.088413574
39	0xbefa9875	-0.4894444
40	0xbeef3155	-0.46717325
41	0xbe5d36c7	-0.21602927
42	0xbd92cf1a	-0.07168408
43	0x3f2ff228	0.68728876
44	0x3ee9ddb7	0.45676968
45	0xbdf42c14	-0.1192247
46	0xbf03d86c	-0.5150211
47	0xbe290a26	-0.16507778
48	0xbe8400ed	-0.25781956
49	0x3eb641df	0.3559713
50	0xbe9af6cb	-0.30266413
51	0x3ebe69ce	0.37190098
52	0x3d16095a	0.036630012
53	0xbe8b6b24	-0.2723018
54	0xbe7f64e0	-0.24940825
55	0xbed0beeb	-0.4077066
56	0xbeabb395	-0.33535448
57	0xbd4b90b1	-0.049698535
58	0xbe33e8d4	-0.17569286
59	0xbe368c1e	-0.17826888
60	0x3edd4f3d	0.43224517
61	0xbe0513ee	-0.12995884
62	0x3f4dd315	0.8040021
63	0x3f41a283	0.756386
64	0xbeaa35fd	-0.33244315
65	0xbeaa896a	-0.33307964
66	0x3f5375ce	0.8260163
67	0xbe99f4c4	-0.30069554
68	0xbe155a85	-0.14585312
69	0x3f0c80de	0.54884136
70	0xbe31fbac	-0.17381161
71	0x3ed8984f	0.42303702
72	0x3f03a572	0.51424325
73	0x3f25fe72	0.6484138
74	0xbe02b02b	-0.12762515
75	0x3f2c416d	0.6728733
76	0x3d02d914	0.031945303
77	0xbd94d4a8	-0.072671235
78	0xbf38caa4	-0.72184205
79	0x3db62abe	0.08894871
80	0xbecf0875	-0.4043614
81	0x3e4797a4	0.1949144
82	0x3cc45474	0.023966052
83	0xbe5eee68	-0.21770632
84	0xbe3185dc	-0.1733622
85	0x3e99af7d	0.300167
86	0xbebbf28f	-0.36708495
87	0x3e410e02	0.18853
88	0x3eb01e21	0.34397987
89	0x3eec648f	0.4617047
90	0x3e6d817d	0.23193927
91	0xbe6cb1de	-0.23114726
92	0x3ee1e120	0.4411707
93	0x3df9aaae	0.12190758
94	0x3e686696	0.22695383
95	0xbe2559c6	-0.16147527
96	0xbec6a82d	-0.38800183
97	0xbcbca434	-0.023027517
98	0x3cec8342	0.028871182
99	0x3e1855de	0.14876506
100	0xbe3f3e26	-0.18676051
101	0x3f25dbf7	0.64788765
102	0xbecf0ed5	-0.40441003
103	0xbecf2360	-0.40456676
104	0xbe07b072	-0.13250902
105	0xbecf03dc	-0.40432632
106	0x3d5b1efc	0.053496346
107	0x3e0ed523	0.13948493
108	0x3d91797e	0.07103251
109	0x3e2acbb9	0.16679277
110	0x3ea0304c	0.31286848
111	0x3f8057df	1.0026816
112	0x3e6da235	0.23206408
113	0xbe3f192c	-0.18661946
114	0xbecf053a	-0.40433675
115	0x3f1eca35	0.62027293
116	0x3e9e1845	0.3087789
117	0x3e61358f	0.21993087
118	0x3f609af9	0.8773647
119	0x3f2d7eed	0.677718
120	0xbeeb34e9	-0.45938805
121	0xbe1cfa17	-0.15329777
122	0x3d3d86a5	0.046270985
123	0xbea4e8ea	-0.3220895
124	0xbe5bf6ed	-0.21480913
125	0xbe6a7ef0	-0.22899985
126	0x3db2beea	0.0872782
127	0xbe3d550a	-0.18489471
128	0xbdf3a9a5	-0.118975915
129	0xbf06d521	-0.5266896
130	0xbecf1f1c	-0.40453422
131	0xbe54f333	-0.20795898
132	0xbd94f11b	-0.0727255
133	0x3ca62aa5	0.020284006
134	0xbe96d42c	-0.2945875
135	0xbe445a9f	-0.19175194
136	0x3e51ecea	0.20500532
137	0xbc304779	-0.010759228
138	0xbdea2aac	-0.1143392
139	0xbe1577f8	-0.14596546
140	0xbe0d4df5	-0.1379927
141	0xbe06877b	-0.13137619
142	0xbeba106b	-0.3634065
143	0xbeb62dd7	-0.35581848
144	0xbe4f9b29	-0.20274033
145	0x3fa23e71	1.2675306
146	0x3dda8afc	0.106710404
147	0xbe0f0256	-0.13965735
148	0x3df774a1	0.12082792
149	0x3f19d8dc	0.60096526
150	0xbe111332	-0.14167479
151	0x3e93419b	0.2876099
152	0xbe5cb99e	-0.21555182
153	0xbdad28f7	-0.08455079
154	0xbeeb29fa	-0.45930463
155	0x3ee59d88	0.4484675
156	0x3d36a11d	0.044587243
157	0x3d8dc1c1	0.06921721
158	0xbee56579	-0.4480398
159	0xbe991be7	-0.299041
160	0x3f511b58	0.8168235
161	0x3e04dc76	0.12974724
162	0x3b8273f5	0.0039811083
163	0x3f0e79e9	0.5565477
164	0x3f35e7cc	0.7105682
165	0xbec3ced4	-0.38243735
166	0xbe443d25	-0.1916395
167	0x3e0ca0c2	0.13733199
168	0xbea81582	-0.3282891
169	0x3f08feb4	0.53513646
170	0xbe11d5dd	-0.14241739
171	0x3eeeb055	0.46618906
172	0xbec083a3	-0.3760043
173	0x3ddd255d	0.10798142
174	0x3de36adb	0.111043654
175	0xbe845ae4	-0.25850594
176	0xbe6b9da2	-0.23009351
177	0xbf0eebf6	-0.558288
178	0x3d9d5cb6	0.07683699
179	0xbdb67b09	-0.08910186
180	0x3ea98865	0.33111873
181	0xbeabae4d	-0.33531418
182	0x3f21ae02	0.6315614
183	0x3f470594	0.77742887
184	0x3d33abfa	0.04386518
185	0xbf69313f	-0.9109077
186	0x3d1891ac	0.0372483
187	0x3e36a97a	0.17838088
188	0xbeb4eff5	-0.35339323
189	0xbe4b6e8f	-0.19866394
190	0xbdce26ef	-0.1006602
191	0xbe0a19e9	-0.13486446
192	0xbef33d50	-0.47507715
193	0x3f2ae24d	0.6675156
194	0x3f5c331a	0.86015475
195	0x3d53ee25	0.051740784
196	0x3df6bad8	0.12047356
197	0x3e8fe294	0.28102553
198	0xbed03c4a	-0.40670997
199	0xbebda079	-0.37036493
200	0x3d3b6785	0.04575302
201	0xbec3c688	-0.38237405
202	0x3e6b5acb	0.22983854
203	0xbec5668e	-0.38554806
204	0xbe8a510d	-0.27014962
205	0x3f0ecfc9	0.55785805
206	0x3f106a57	0.5641226
207	0xbe3db08e	-0.18524382
208	0x3f14ebc5	0.58172256
209	0xbdde8f4a	-0.10867174
210	0x3efe88ac	0.49713647
211	0xbeea8dec	-0.45811403
212	0x3f2d22c8	0.67631197
213	0xbed3a7e7	-0.41339037
214	0xbe255992	-0.1614745
215	0x3f1ca2d4	0.61185956
216	0x3eecb2c2	0.4623013
217	0x3f8da43b	1.1065744
218	0x3ee5b87e	0.4486732
219	0xbeea7d52	-0.45798737
220	0xbeaf76c1	-0.3427029
221	0x3f4c9964	0.79921556
222	0xbf372ff9	-0.71557575
223	0xbf3a6318	-0.72807455
224	0x3f0cbf9c	0.5497987
225	0x3cf99cf0	0.030470341
226	0xbf1ce98c	-0.61293864
227	0x3de5f9cc	0.112292856
228	0x3f6ef752	0.9334613
229	0x3f884b8d	1.0648056
230	0x3f28eb5c	0.6598413
231	0x3ee7d349	0.45278385
232	0x3f2f7093	0.6853115
233	0xbeafa00a	-0.34301788
234	0x3d4c8d93	0.049939703
235	0x3f31e398	0.69487906
236	0xbe9e13de	-0.30874532
237	0xbee89888	-0.45428872
238	0x3e74774d	0.23873635
239	0xbee2f892	-0.4433027
240	0x3f1215c7	0.5706448
241	0x3f121302	0.57060254
242	0x3d9f50e0	0.077790976
243	0xbe3e07b1	-0.18557622
244	0xbdcef074	-0.101044565
245	0x3e3af600	0.18257904
246	0xbcbad26a	-0.022805411
247	0x3f31105f	0.69165605
248	0x3e942a44	0.28938496
249	0x3e738919	0.23782767
250	0x3eed4ea2	0.46349055
251	0xbeb1b644	-0.3470937
252	0x3e658d0a	0.22417083
253	0x3f24e178	0.6440654
254	0x3eedbb98	0.46432185
255	0x3ec6e631	0.38847497

l1.bias f4 [8]
0	0x3f37c787	0.7178883
1	0x3f4fe58e	0.8120965
2	0x3ecefecb	0.40428767
3	0x3eeb28af	0.45929477
4	0x3f6932fd	0.91093427
5	0x3f3a67d0	0.72814655
6	0x3ef45420	0.47720432
7	0x3f0b1419	0.5432754

l2.weight f4 [8, 8]
0	0x3f952130	1.1650753
1	0xbf40de6b	-0.7533938
2	0x3eb5ff39	0.35546282
3	0xbf71dbc4	-0.9447596
4	0x3e8d8554	0.27640784
5	0x3e0a5a7b	0.13511078
6	0x3f9021e1	1.1260339
7	0x3f9043cd	1.1270691
8	0x3f45aff8	0.7722163
9	0xbee48406	-0.44631976
10	0x3e932aa9	0.28743485
11	0xbf812ce3	-1.0091823
12	0xbd898079	-0.06713957
13	0x3d5bb221	0.053636674
14	0x3f914743	1.1349872
15	0x3efadc5f	0.48996255
16	0x3f8ce496	1.1007259
17	0xbd4cfbac	-0.0500447
18	0xbe8faa07	-0.28059408
19	0x3f90b954	1.1306558
20	0xbf9dba39	-1.2322456
21	0x3fa87a00	1.3162231
22	0xbe845f8e	-0.25854152
23	0xbec7c876	-0.39020127
24	0x3e9e602b	0.30932745
25	0x3fb505fb	1.414245
26	0xbf1c7139	-0.61110264
27	0xbef2aeed	-0.47399083
28	0x3fc897e1	1.567135
29	0xbefb6b4e	-0.49105304
30	0x3df3232b	0.11871942
31	0x3e182dc0	0.14861202
32	0x3e91e6a0	0.28496265
33	0xbea072c5	-0.31337562
34	0xbe428a46	-0.1899806
35	0xbf5a979b	-0.8538758
36	0x3e621d5b	0.2208151
37	0x3f99cdb1	1.2015897
38	0x3e8b574f	0.2721505
39	0xbf37ad04	-0.71748376
40	0xbf6393d6	-0.88897455
41	0x3f16216e	0.5864476
42	0x3f8df491	1.1090261
43	0x3e8a325f	0.26991555
44	0xbea86548	-0.3288977
45	0x3f912919	1.1340667
46	0xbe83aa04	-0.2571565
47	0x3f669b34	0.9008057
48	0xbf11392f	-0.5672788
49	0x3f8f5051	1.1196386
50	0x3f7cf52a	0.9881159
51	0xbd847394	-0.06467357
52	0xbc8a278a	-0.016864557
53	0x3eca1b91	0.39474156
54	0xbea54fc1	-0.3228741
55	0x3f8dc610	1.1076069
56	0x3e21b5a1	0.15791942
57	0xbf08b914	-0.53407407
58	0x3f62e1e0	0.8862591
59	0xbf2e0d3f	-0.6798896
60	0xbf1536c9	-0.5828672
61	0xbea1f765	-0.3163406
62	0x3f38b14a	0.7214552
63	0x3f68a60b	0.9087836

l2.bias f4 [8]
0	0x3e461ad2	0.19346169
1	0x3ec7c009	0.390137
2	0x3f123b25	0.571215
3	0x3f580fb5	0.8439897
4	0x3e98a6f9	0.2981489
5	0xbea056fd	-0.31316367
6	0x3dd0ad05	0.10189251
7	0x3e8a8ec0	0.27062035

l3.weight f4 [9, 8]
0	0x3ec0d588	0.3766291
1	0x3ef84965	0.48493496
2	0xbfbce758	-1.47581
3	0x3eab3603	0.33439645
4	0x3f3874e6	0.7205337
5	0xbfa91497	-1.3209409
6	0xbf889033	-1.0669006
7	0xbfc9b1ae	-1.5757349
8	0x3f24b43a	0.64337504
9	0x3eec2565	0.4612228
10	0xbf75caa8	-0.96012354
11	0xbf231186	-0.63698614
12	0xbfb6c845	-1.4279867
13	0xbfac33b8	-1.3453283
14	0xbeb2cfb6	-0.34924096
15	0x3ef0fb50	0.47066736
16	0x3e36dcdc	0.17857689
17	0x3d5d50b3	0.05403204
18	0x3d91559a	0.07096405
19	0xbf8c339d	-1.0953251
20	0x3f3c3397	0.7351622
21	0xbf7c7658	-0.9861808
22	0xbfc0629e	-1.5030096
23	0xbf4beb9d	-0.7965639
24	0xbfc98efc	-1.574676
25	0xbf306052	-0.68896973
26	0xbf1a15dd	-0.6018961
27	0xbf0810d0	-0.53150654
28	0xbfab3797	-1.337634
29	0x3f085d2c	0.5326717
30	0x3f11a1a7	0.56887287
31	0xbfee31c1	-1.8608934
32	0xbf8e0594	-1.1095452
33	0xbe9f0728	-0.31060147
34	0x3d9cd52f	0.07657849
35	0xbf50dad1	-0.8158389
36	0x3f1f043f	0.62115854
37	0x3e90c135	0.28272405
38	0xbe9f429a	-0.311055
39	0xbf5354d4	-0.8255131
40	0x3d2fd678	0.042929143
41	0x3ed9511c	0.42444694
42	0xbe9d872f	-0.307672
43	0xbfcd2626	-1.6027267
44	0xbf1f543d	-0.6223791
45	0xbe7c8399	-0.24659576
46	0x3e0d8ecc	0.13824004
47	0x3f23b438	0.63946867
48	0xbf7cef1b	-0.98802346
49	0xbeb3cc3d	-0.3511676
50	0x3f901f47	1.1259545
51	0xbefc0495	-0.49222246
52	0xbfb71a93	-1.4304985
53	0xbfd09e89	-1.6298381
54	0xbf8d0bb1	-1.1019193
55	0xbf0b6662	-0.544531
56	0xbee273ca	-0.44228965
57	0xbf113a7e	-0.56729877
58	0xbfd523fd	-1.6651608
59	0xbe12fd89	-0.14354528
60	0xbf8994a5	-1.0748488
61	0x3e52f9ee	0.20603153
62	0x3f15c369	0.585013
63	0xbe6af5b0	-0.22945285
64	0xbfa60769	-1.2971011
65	0xbf08bc9e	-0.53412807
66	0xbf9d4500	-1.2286682
67	0x3f921c3f	1.141487
68	0xbf916888	-1.1360025
69	0xbf36b95b	-0.7137658
70	0x3e780541	0.24220754
71	0xbf4f5093	-0.8098232

l3.bias f4 [9]
0	0xbe5c2492	-0.21498325
1	0xbd6158f4	-0.055016473
2	0xbeb00061	-0.3437529
3	0xbf11c0e3	-0.56934947
4	0xbeac4108	-0.33643365
5	0xbf0ba8cf	-0.54554456
6	0x3eee2eeb	0.4652017
7	0xbf0d2c81	-0.5514603
8	0x3f0894e1	0.5335217
