data.pth (torch, 4247 bytes, 6 tensors)

l1.weight f4 [8, 36]
000000 2d 95 59 3f df 30 f6 3e 08 89 13 3f 5d 97 8a be
       0.8499325 0.4808416 0.5763097 -0.27068606
000010 3a 49 58 be f0 22 44 3a e5 39 58 3f af 40 11 3f
       -0.21121684 0.0007482013 0.8446334 0.56739324
000020 52 4b 9b be a4 77 a6 3d 65 c7 2e 3c 88 0b 6b bd
       -0.30330902 0.081282884 0.010667657 -0.057384044
000030 da c3 f4 be ca 41 f4 3e 5d c2 1a 3f 27 e7 2f 3f
       -0.47805673 0.47706443 0.60452825 0.68712085
000040 9c d5 c8 3e 4a 5c 5f 3e 33 1a c3 3e 0d 14 48 3d
       0.3922547 0.21812549 0.38105926 0.048847247
000050 41 7e db be 90 45 13 bf 50 4b 22 bf 9b 30 06 3f
       -0.42869762 -0.5752802 -0.6339617 0.52417916
000060 dd d5 0a be 9c 0c 13 3f 94 31 aa bd fc ef d8 be
       -0.13558145 0.57441115 -0.083102375 -0.42370594
000070 5e c3 57 be db 1a 13 3f 65 90 36 be f8 97 96 3f
       -0.2107062 0.57462853 -0.1782852 1.1765127
000080 74 56 a0 be aa a1 ba 3e 20 1d 0d 3e 70 2c 7f bc
       -0.31315958 0.36451465 0.13780642 -0.01557456
000090 67 32 06 bf 2a 02 96 be 89 97 2a 3d 6f fc 15 3f
       -0.5242066 -0.29298526 0.04164842 0.5858831
0000a0 b0 e2 24 3f d7 f5 07 3f d2 e8 0e bf d5 b6 c5 be
       0.644084 0.53109497 -0.55824006 -0.38616052
0000b0 d6 1e 0c 3f b7 77 3d 3f 75 90 26 3f d4 65 ce 3e
       0.5473455 0.74010795 0.65064174 0.40312064
0000c0 91 bf 07 3f 34 92 51 be 28 ce 8c bd f3 b7 a3 be
       0.5302668 -0.20465928 -0.06875259 -0.3197628
0000d0 83 01 3e bf 49 01 92 3d 0f 97 dc be 6b 45 1f 3f
       -0.74221057 0.071291514 -0.43084 0.622153
0000e0 11 cc 0c 3f 34 ea 2b 3f 30 d3 28 3f 5a 6e a8 be
       0.5499888 0.6715424 0.65947247 -0.32896692
0000f0 81 af 19 3f bc 32 84 3d e2 aa 0d bf c4 0c 25 3f
       0.6003342 0.06454989 -0.5533887 0.64472604
000100 cd d9 2d 3d e9 6a 01 3f 48 90 00 3f 4d 2c e0 be
       0.04244404 0.50553757 0.50220156 -0.437838
000110 36 8e b3 3e de c8 91 be 4f f7 9c be 32 e9 1e 3f
       0.35069436 -0.28473562 -0.3065743 0.6207458
000120 dc 9e f1 be b9 be 1c 3f 43 65 b1 bd f7 35 28 3f
       -0.47191513 0.6122852 -0.08661892 0.65707344
000130 8e c7 ec 3e bd 4c 81 be bc 25 b9 be b2 18 21 3f
       0.46245998 -0.2525386 -0.36161602 0.6292831
000140 66 3b 85 be 73 96 40 be 35 0d db 3a c4 e0 28 3f
       -0.2602188 -0.18807392 0.001671231 0.65967965
000150 50 20 8a be d6 0b 54 3f 75 6a 38 3f 5c 36 eb bd
       -0.26977777 0.8283056 0.7203744 -0.114849776
000160 3a 3d 89 be 95 31 ae bd f5 96 29 3f 5e 9c 13 3f
       -0.26804525 -0.08505551 0.6624597 0.5766047
000170 4c dd 85 be 88 be 51 3f 2c 92 51 3f 89 12 dd 3b
       -0.261454 0.8193135 0.81863666 0.0067465943
000180 58 8a ca bc cf 97 9b 3e 7b 99 40 be 12 24 2d be
       -0.02472417 0.30389258 -0.18808548 -0.16908291
000190 7e 1d a6 be 23 d0 08 bf f3 03 f3 3e a8 c1 e4 be
       -0.32444376 -0.5344259 0.4746395 -0.44678998
0001a0 f7 81 dd be 4f 51 05 3f e0 1f 11 3f cb c7 15 be
       -0.43263218 0.5207719 0.5668926 -0.14626996
0001b0 58 cc 69 be cf 7f 30 3f db b1 fe bd 5a 19 26 3f
       -0.22831857 0.6894502 -0.12436267 0.64882433
0001c0 88 1e e5 3e e0 da a0 be 97 53 c7 be dc da 08 3f
       0.44749856 -0.31416988 -0.3893096 0.5345895
0001d0 6c e1 ad be d4 e6 43 be 7f 23 03 be d7 cd 97 3e
       -0.33961046 -0.19131023 -0.1280651 0.2964923
0001e0 ec ab a2 be 33 74 43 3f cc 7e 11 3f 3f f4 99 bd
       -0.3177179 0.7634918 0.568341 -0.07517289
0001f0 d3 51 cd be 94 f5 30 bd 95 93 2f 3f 27 ac 94 3e
       -0.4010149 -0.04320295 0.6858457 0.29037592
000200 07 1e de be ba 85 0b 3f 1b ad 0a 3f 55 75 75 bd
       -0.43382284 0.54500926 0.5417039 -0.05992635
000210 23 cf 45 bd fd 64 b5 3e 27 85 c2 3d 9f d4 35 bd
       -0.048293244 0.3542861 0.09498053 -0.044392224
000220 7f 99 29 bd 50 a7 dc be 32 c3 a5 3e 7b ee 15 be
       -0.04140615 -0.430964 0.32375485 -0.14641754
000230 f4 a7 a9 bd 7e 49 21 3f 88 6a cf 3e 84 fd 4c 3e
       -0.08283988 0.63002765 0.40510964 0.20018584
000240 5d fe 0c 3f 7c 7a e1 3e 42 fc b1 bd f1 98 ab 3e
       0.5507563 0.4403876 -0.086906925 0.33515123
000250 9b 5c 8a 3e ca c5 0c 3f 6a 96 4c bf 6c ab e1 3e
       0.27023777 0.549893 -0.79917014 0.44076097
000260 73 47 f4 3e f4 4e 3a 3b a1 64 27 3f 84 98 7f 3e
       0.4771076 0.0028428407 0.6538792 0.24960524
000270 10 ca e3 3e 61 7e 00 3f e3 56 76 3e f3 88 b0 be
       0.444901 0.5019284 0.24056582 -0.34479484
000280 c0 e5 40 bf 8c cf 8e 3d 6e 9a b7 3e f4 ef ab 3e
       -0.7535057 0.0697318 0.35860008 0.33581507
000290 bd 11 28 3f e6 a3 c2 3e 84 36 6b 3e ad 77 09 be
       0.65652066 0.3801567 0.22970015 -0.13424559
0002a0 a4 9f 34 be b1 2d 9e 3e e3 b4 15 bf c0 cb 2a 3f
       -0.17639023 0.30894235 -0.58479136 0.6671715
0002b0 ce 75 c8 be 9d 7a 9d 3e dc 61 c5 3e 1c 53 10 3f
       -0.39152378 0.3075761 0.38551223 0.56376815
0002c0 11 9e cd 3b 97 3e 19 3e e0 a3 4b 3e df 98 70 be
       0.0062749465 0.14965282 0.19886732 -0.23495816
0002d0 d0 0d 20 bc 38 ae cb 3c 25 37 a7 3d d0 f6 9d bd
       -0.009768918 0.024863347 0.08164815 -0.077130914
0002e0 f6 56 ba bd b2 95 95 3d 4c 51 de bd c4 99 cf 3d
       -0.09098618 0.07303943 -0.1085535 0.1013675
0002f0 c0 69 6e 3d 20 1e 06 bd de 53 a3 bd e0 4d a8 3c
       0.05820632 -0.032743573 -0.07974981 0.020544946
000300 5a 76 15 be 9d b5 c4 bd 5f 86 01 3e 57 0d af 3c
       -0.14595929 -0.096049525 0.12648915 0.021368666
000310 c0 e9 db bd 87 b1 20 3e 8a 0a 83 3d c0 79 35 3c
       -0.10737944 0.15692721 0.063984945 0.011076391
000320 6e 88 26 be 33 78 29 be c0 fc 5d bb 70 21 1b 3e
       -0.16262981 -0.16549759 -0.0033872575 0.15149474
000330 b8 87 e8 bd 74 5c 03 be bd dd c9 3d 20 b1 ce bb
       -0.11354011 -0.12828237 0.09856746 -0.006307736
000340 45 67 03 3e 67 db 9d bd fd 66 23 3e 58 3d 97 bd
       0.12832363 -0.07707863 0.15957256 -0.07384747
000350 61 da 04 be fb 72 15 be 7f c7 26 be 73 7b 83 bd
       -0.1297393 -0.14594643 -0.16287039 -0.064200304
000360 aa db 6d 3f bb 4c a8 bc 9e e2 e0 3d a5 b8 7c be
       0.92913306 -0.0205444 0.10980724 -0.24679811
000370 34 cc 59 be 5c 51 cd be 2b 6d ce 3e 57 62 0e 3e
       -0.21269304 -0.40101135 0.40317664 0.13904701
000380 3e 3b 76 be 07 e2 b7 be 39 2f 84 be f7 fc d1 be
       -0.24046037 -0.35914633 -0.25817278 -0.4101331
000390 c4 4f 80 be 0a 90 4b be 81 ae 20 3e 38 85 04 3f
       -0.25060856 -0.19879165 0.15691568 0.51765776
0003a0 8d e5 bb 3e 47 3d 5c 3e 72 f2 3b be fc 90 c0 be
       0.3669857 0.2150775 -0.18354204 -0.37610614
0003b0 8f 94 03 bf 87 69 1f bf 6e f4 15 bf e2 7b 07 3f
       -0.5139856 -0.62270397 -0.58576095 0.52923405
0003c0 56 5c be bc 13 1f 20 3e 6f ed 4a 3f 44 76 53 be
       -0.023237389 0.15636854 0.79268545 -0.20650584
0003d0 8e ed 5f 3f 13 a0 ce 3e 83 66 ba be cd fd 58 3f
       0.87471855 0.40356502 -0.36406335 0.8476227
0003e0 9e 04 0f 3f ef 5e a1 bd b6 8e 4e bd eb 77 10 bd
       0.5586642 -0.07879435 -0.05042907 -0.035270613
0003f0 91 15 21 bf fd 86 7e be b2 0c bb 3e e5 c1 3a 3f
       -0.6292353 -0.24856181 0.36533123 0.7295211

l1.bias f4 [8]
000000 4e 1f 47 3f a2 c7 28 3f 26 9c 71 3f 2e b6 68 3f
       0.7778214 0.65929615 0.9437889 0.90902984
000010 4f 51 78 3f cf 64 19 be 2c 77 1f 3f 34 12 21 3f
       0.9699907 -0.14979862 0.62291217 0.629184

l2.weight f4 [8, 8]
000000 0d 16 8b 3e fa ee bc 3f 83 75 0b be 66 02 5e bd
       0.2716526 1.476043 -0.13619046 -0.054201506
000010 df 98 98 3f 91 11 aa 3e 97 90 bf be 6d d1 55 be
       1.1921653 0.33216527 -0.37415 -0.20880671
000020 86 bd 1c be c6 4a 24 3e ec 31 4b be 0b d3 60 be
       -0.15306672 0.16044149 -0.19843262 -0.21955507
000030 90 d0 6c be 47 07 8c 3e 96 22 a2 be 59 a5 68 be
       -0.23126435 0.27349302 -0.31667012 -0.22719325
000040 25 1c bc 3d 78 7a 1b 3f 9c 54 64 3f 6b f1 81 3f
       0.09185056 0.6073375 0.89191604 1.01518
000050 7c 5d 47 3f f8 9c cd bc 5c 7f 3a bf d6 c2 88 3e
       0.7787702 -0.025099263 -0.72850585 0.26711148
000060 0f 8c 22 3f 50 28 39 3f 43 22 d2 be f1 9c 10 3d
       0.6349496 0.72327137 -0.41041765 0.03530592
000070 ca a3 58 bf 1b cb 40 be fc 7f 96 3f 20 70 a2 3f
       -0.8462492 -0.18827479 1.1757808 1.2690468
000080 2d be 5e 3e 9e be e5 bd e7 b2 88 3f bc b3 97 3f
       0.21752234 -0.11217998 1.0679597 1.1851726
000090 9e 8b 36 3e 6a 03 67 be fc a0 82 bf 1b 49 f1 3e
       0.17826697 -0.22559896 -1.0205379 0.47126088
0000a0 b5 17 3e be 6e a8 1f 3e a5 ab a1 be 61 22 95 3e
       -0.18563731 0.15591595 -0.31576267 0.29127792
0000b0 f1 b6 8d be 20 cd 38 bd f9 2f b0 be 69 77 7d be
       -0.27678636 -0.045117497 -0.344116 -0.24752583
0000c0 77 4e a9 3f 26 68 fe be 3a 49 bd be cc 28 2e bf
       1.322707 -0.49688834 -0.3696993 -0.68031
0000d0 5e 65 a2 3b b4 f9 9d be 14 f0 71 3e 86 08 21 3e
       0.0049559316 -0.3085457 0.23626739 0.15725908
0000e0 b2 79 a8 3f 16 28 a6 bf cf 68 4f 3e d1 db 29 3f
       1.3162138 -1.2980983 0.20254825 0.6635104
0000f0 70 21 e7 3e 30 e4 b6 bd 90 72 b9 3f db b4 11 bf
       0.45142698 -0.08930242 1.4488087 -0.5691659

l2.bias f4 [8]
000000 c5 d0 38 3f 79 17 75 be c1 c3 ba 3e 99 dd 1d 3f
       0.7219356 -0.23934735 0.36477473 0.61666256
000010 19 5a 90 3b 50 b8 da bd 07 ff b1 be 8b 65 e6 3e
       0.0044052717 -0.10679686 -0.34764883 0.44999346

l3.weight f4 [7, 8]
000000 8c b5 87 bd 9a eb 26 3e ad 9c e8 3c 0f f5 fb be
       -0.06626424 0.16300812 0.028395021 -0.49210402
000010 78 bc 47 bf 79 12 88 be d2 95 18 3d 9c 99 50 3f
       -0.78021955 -0.26576594 0.037252255 0.8148439
000020 35 5e cf be 0a 03 44 3e d7 d5 af 3e 95 dc b5 bf
       -0.40501562 0.19141784 0.34342834 -1.4207941
000030 d9 53 05 3f 20 32 91 3c 30 b5 c7 bf 8d 9b 19 3f
       0.52081066 0.017724097 -1.5602169 0.60002977
000040 22 ec 96 bf 60 50 3c bc 43 82 58 bf 59 5d 44 3e
       -1.1790812 -0.011493772 -0.84573764 0.19176234
000050 f3 a1 76 bf 70 e1 38 3d 78 20 9c 3f 09 f9 9a 3c
       -0.96340865 0.04513687 1.2197409 0.018917577
000060 5f 2f a9 bf 00 92 d5 3c 66 b4 74 bf 7c aa 37 3f
       -1.3217582 0.026070595 -0.95587766 0.71744514
000070 51 f8 2f bf a6 55 7d 3e b7 00 db bf 03 47 b6 3e
       -0.68738276 0.24739704 -1.7109593 0.35601053
000080 b2 ea 8c 3f 63 66 a6 3e ad a4 b6 3e f1 ca 33 bf
       1.1009123 0.3249999 0.35672513 -0.7023154
000090 e2 4d b5 bf 2e da fa bd 71 0b 5d bf f6 a9 2b bf
       -1.4164393 -0.12248646 -0.86345583 -0.67056215
0000a0 91 8f 34 bd 85 bd ac be 57 33 27 3e dd 7f 53 3f
       -0.044082228 -0.33738342 0.16328178 0.8261698
0000b0 a8 5f 6f bf 8a ac 38 be 19 54 54 bf f7 bf ad bf
       -0.93505335 -0.18034568 -0.8294082 -1.3574208
0000c0 65 d6 f8 bc 18 ff 50 bd b5 90 3f 3f ab 79 00 bf
       -0.030375669 -0.051024526 0.7483018 -0.5018565
0000d0 e5 29 1b 3f 14 1c c7 3d a1 3a c0 be 86 35 84 bf
       0.606108 0.09722152 -0.3754473 -1.0328834

l3.bias f4 [7]
000000 b6 e5 6f 3e a7 65 12 bf 7d 25 d8 bd 81 8d 9d 3e
       0.23427472 -0.5718636 -0.10554025 0.3077202
000010 79 1f 76 3d 79 5b 41 be 5e ae 7b 3e
       0.06008861 -0.1888255 0.24578235
