data.pth (torch, 4247 bytes, 6 tensors)

l1.weight f4 [8, 36]
0	0xbef0093d	-0.46882048
1	0x3f439d8d	0.7641228
2	0x3e64d162	0.22345498
3	0xbdc7e564	-0.0976055
4	0xbcb41eb5	-0.021987299
5	0x3f396e58	0.72433996
6	0x3f1f2ea3	0.62180537
7	0x3f3d1edd	0.7387522
8	0x3f1cb79c	0.61217666
9	0x3ebe5944	0.3717748
10	0x3f4581dd	0.7715128
11	0x3d450166	0.048097037
12	0x3f1730f2	0.5905906
13	0x3f3bec12	0.7340709
14	0x3f52b16e	0.82301986
15	0x3eeeb3e2	0.46621615
16	0x3eac1b9e	0.3361482
17	0x3f22e8c3	0.63636416
18	0x3f51937a	0.81865656
19	0xbcc76081	-0.024338009
20	0x3f26a72f	0.6509885
21	0xbe048855	-0.12942632
22	0xbe69e5ca	-0.22841564
23	0x3ee1a550	0.44071436
24	0x3e6da071	0.23205735
25	0x3f1fdb50	0.6244402
26	0xbeeedf92	-0.46654946
27	0x3ef77654	0.48332465
28	0xbdbdc655	-0.092663445
29	0x3f1f9120	0.6233082
30	0xbdff25d6	-0.124583885
31	0xbf0c27ed	-0.5474842
32	0x3ec675a4	0.38761628
33	0x3e94e721	0.29082587
34	0x3eab7c0a	0.33493072
35	0x3e3acd17	0.18242298
36	0xbd23a9ad	-0.039956737
37	0x3d1f5d1f	0.038907167
38	0x3ed2fa8c	0.41206777
39	0x3e912b10	0.28353167
40	0x3eafff97	0.34374687
41	0x3ecf7f5d	0.40526858
42	0x3f098466	0.5371765
43	0xbe06a933	-0.13150482
44	0x3f2b1f84	0.66844964
45	0xbcb2a3b8	-0.021806583
46	0x3edf769f	0.43645188
47	0x3e5497ae	0.20760986
48	0xbd960c28	-0.07326537
49	0xbdae1ec6	-0.08501963
50	0xbe0f58f3	-0.13998775
51	0x3f061202	0.5237123
52	0x3eba4855	0.3638331
53	0x3e94a0b6	0.29028863
54	0xbe24df12	-0.1610072
55	0x3e838729	0.25689057
56	0x3df5b562	0.11997487
57	0x3e9d990a	0.30780822
58	0x3ecf7d2c	0.40525186
59	0x3eb32fda	0.34997445
60	0xbeb33548	-0.35001588
61	0x3e870fd1	0.26379254
62	0xbd311516	-0.043233
63	0x3ee15516	0.44010228
64	0xbec37e3d	-0.3818225
65	0x3f2bd7c5	0.67126113
66	0x3e969962	0.29413897
67	0xbce498c1	-0.02790487
68	0x3e1fa68b	0.15590875
69	0x3e00d05a	0.1257948
70	0x3d706a83	0.058695327
71	0xbe366177	-0.17810617
72	0xbee4359e	-0.44572157
73	0xbd1a14f4	-0.03761764
74	0x3c553a98	0.013014458
75	0x3f14ee63	0.5817625
76	0x3ed6b25f	0.4193296
77	0xbea3f2e8	-0.3202126
78	0xbe09d695	-0.13460763
79	0x3d688dc7	0.056775834
80	0xbe9c9b71	-0.30587342
81	0x3f5c70e6	0.8610977
82	0xbe0e1ef1	-0.1387899
83	0x3eef80c7	0.46777937
84	0xbdcec715	-0.10096566
85	0xbdff5846	-0.12468009
86	0x3cee08bb	0.029056897
87	0xbe030754	-0.12795764
88	0xbe796089	-0.24353231
89	0xbd992787	-0.07478242
90	0x3ded866c	0.115979046
91	0x3f0a9fd9	0.5415016
92	0xbe63a6b2	-0.22231558
93	0x3f52b2e4	0.82304215
94	0x3f3d3cb2	0.7392074
95	0xbeba7664	-0.3641845
96	0x3f303275	0.6882699
97	0xbdb90370	-0.09033859
98	0xbf329e3d	-0.697727
99	0xbf24177d	-0.6409834
100	0x3f32ef09	0.6989599
101	0x3ed5bfcc	0.41747892
102	0x3f03cfc3	0.51488894
103	0xbee4241e	-0.44558805
104	0x3ed70ccb	0.42001948
105	0x3e368c53	0.17826967
106	0x3cd07817	0.025447888
107	0x3f0ff2b3	0.56229705
108	0x3d22798c	0.039666697
109	0xbebf422f	-0.37355182
110	0x3e93f605	0.28898636
111	0x3f11405c	0.5673883
112	0x3f241c8a	0.6410605
113	0xbeb7f8b2	-0.35931927
114	0x3f0dd63c	0.5540502
115	0xbeb6f8a2	-0.35736567
116	0xbf08a187	-0.5337147
117	0xbf577f3e	-0.8417853
118	0xbe94e1a7	-0.2907841
119	0x3eb59e5b	0.35472378
120	0xbee853c5	-0.4537641
121	0xbe9bd92d	-0.3043913
122	0xbe9dcc27	-0.30819818
123	0x3e75247d	0.239397
124	0x3e867247	0.26259062
125	0x3deedbad	0.116629936
126	0xbf06299c	-0.5240724
127	0x3eac7222	0.33680826
128	0xbf017a8a	-0.50577605
129	0x3f1c5852	0.61072266
130	0x3f2299dd	0.63516027
131	0x3e40c8d5	0.18826611
132	0xbebb5259	-0.36586264
133	0xbd944ffb	-0.072418176
134	0x3f4a2f1e	0.78978145
135	0xbed1ba02	-0.40962225
136	0xbd921adf	-0.071340315
137	0xbd60816e	-0.054810934
138	0x3f28daa1	0.659586
139	0xbd80a63f	-0.06281709
140	0x3e5aee92	0.2138007
141	0xbea4d077	-0.32190296
142	0xbec6a0ea	-0.38794643
143	0xbef4c420	-0.47805882
144	0xbdfbfed3	-0.12304463
145	0xbea4a2dc	-0.32155502
146	0xbd491497	-0.0490919
147	0x3eb8716b	0.3602403
148	0x3f0d35b4	0.5516007
149	0xbeb9daf2	-0.36299855
150	0x3edd0263	0.43165883
151	0xbd093c48	-0.033504754
152	0xbeb51f52	-0.35375458
153	0xbe9d29d1	-0.30695966
154	0xbea0c0d1	-0.31397107
155	0x3f1f5007	0.6223149
156	0xbe673a56	-0.22580847
157	0xbebfc2de	-0.3745336
158	0xbe880777	-0.26568195
159	0xbd3ed481	-0.04658938
160	0x3e6b3011	0.22967555
161	0xbce57077	-0.028007729
162	0xbe9747e0	-0.29547024
163	0x3f02549a	0.5091034
164	0xbeef88f4	-0.46784174
165	0x3f513986	0.817284
166	0x3f45ff4e	0.7734269
167	0x3e601040	0.21881199
168	0x3db3344a	0.08750208
169	0xbd686250	-0.056734383
170	0x3f58dccd	0.84711915
171	0xbe9ef33c	-0.31044948
172	0x3e1a08ac	0.1504237
173	0x3dd6436a	0.10462077
174	0x3f0d08c9	0.5509153
175	0x3ba5dfcc	0.005062079
176	0x3eb69dc9	0.35667256
177	0xbe44f2c2	-0.1923323
178	0xbcb51021	-0.022102417
179	0x3dae0691	0.08497346
180	0x3b38e779	0.002821414
181	0x3d84ba43	0.06480839
182	0x3e4065d5	0.18788846
183	0xbe70a5e5	-0.23500784
184	0xbe4e0d34	-0.20122224
185	0x3f31180f	0.69177336
186	0x3da215a0	0.07914281
187	0x3d5244d7	0.051335182
188	0x3f13bbcc	0.5770843
189	0x3f3beec5	0.7341121
190	0x3f14060e	0.5782174
191	0xbe9179b2	-0.2841316
192	0x3e750315	0.23926957
193	0xbbb6ad90	-0.0055748895
194	0xbca29aee	-0.019849267
195	0x3e824053	0.254397
196	0xbe68292e	-0.22671959
197	0x3e3d034b	0.18458287
198	0xbe1e7f7c	-0.15478319
199	0xbe8036d2	-0.25041825
200	0x3f3d31c9	0.7390409
201	0xbef883a9	-0.4853795
202	0xbef87e09	-0.48533657
203	0x3ec9b7ba	0.39397985
204	0x3f2757e3	0.6536848
205	0x3e328b74	0.1743601
206	0xbdbea528	-0.09308845
207	0x3f3a15b9	0.72689396
208	0x3f4b501c	0.7941911
209	0x3f3180c9	0.69337136
210	0xbe803ab4	-0.25044787
211	0x3e3749fb	0.17899315
212	0x3f47b630	0.7801237
213	0x3e289882	0.16464427
214	0x3dd40cf9	0.10354037
215	0x3eecf623	0.46281537
216	0x3f4e7ac6	0.8065609
217	0x3f3ecfac	0.7453563
218	0xbd4d8a00	-0.050180435
219	0x3edbb362	0.42910296
220	0x3f061a59	0.52383953
221	0xbd8625c2	-0.065501705
222	0xbedba4fd	-0.42899314
223	0x3f12cdd0	0.57345295
224	0xbdceac56	-0.10091464
225	0xbf21076a	-0.6290194
226	0x3de30014	0.11083999
227	0x3e86545d	0.2623624
228	0xbf06be74	-0.5263436
229	0x3f4d3219	0.8015457
230	0x3f43f8f7	0.76551765
231	0xbdc0cf8b	-0.09414586
232	0xbed6dcec	-0.41965425
233	0x3ead5277	0.33851978
234	0x3f592fb4	0.84838414
235	0x3e21a11a	0.15784112
236	0xbee28639	-0.4424303
237	0x3ef7f629	0.48429993
238	0x3e90f483	0.28311548
239	0xbdf23cfe	-0.118280396
240	0xbdb349bc	-0.08754298
241	0x3f2dea1a	0.67935336
242	0x3ea7f429	0.32803467
243	0x3ea465b3	0.3210884
244	0xbe5cdb90	-0.21568131
245	0xbf183ca5	-0.59467536
246	0x3e98e41b	0.2986153
247	0x3f669afb	0.9008023
248	0xbe8e9e6f	-0.2785525
249	0x3f3dd041	0.74145895
250	0x3f47d702	0.7806245
251	0xbe6763d9	-0.22596683
252	0x3ed3dbae	0.4137854
253	0x3e02ee9b	0.12786333
254	0xbdace80f	-0.08442699
255	0xbead2bee	-0.33822578

l1.bias f4 [8]
0	0x3f17e59f	0.5933475
1	0x3e748590	0.23879075
2	0x3ee436b3	0.44572982
3	0x3f785184	0.9699938
4	0x3f2c7832	0.67370903
5	0x3ef87edf	0.48534295
6	0x3f8fc563	1.1232113
7	0x3f075fad	0.52880365

l2.weight f4 [8, 8]
0	0x3f14ba40	0.58096695
1	0x3f2eb530	0.6824522
2	0x3f99e63f	1.202339
3	0x3f22d151	0.6360064
4	0x3f8e79a9	1.1130878
5	0xbe526e64	-0.20549923
6	0xbec19d51	-0.37815335
7	0xbee972ec	-0.4559549
8	0x3fab276a	1.3371403
9	0x3f863e43	1.0487751
10	0xbf709d61	-0.9399014
11	0xbeb7c41c	-0.35891807
12	0xbf6fb3b5	-0.93633586
13	0x3e19bcaf	0.15013383
14	0x3f600623	0.87509364
15	0x3e8690b0	0.26282263
16	0x3f059b60	0.5219021
17	0x3f3e86bb	0.7442433
18	0xbf2cc18a	-0.6748282
19	0x3f086b6f	0.5328893
20	0x3e2f89c9	0.17142405
21	0x3e0d7bc6	0.13816747
22	0xbed9e1ac	-0.42554986
23	0xbf6a2777	-0.9146647
24	0x3f8270ac	1.0190635
25	0x3f0bb9d9	0.54580456
26	0x3f681e29	0.9067102
27	0x3cb22619	0.021746682
28	0xbd2bea57	-0.04197153
29	0x3f9cf155	1.2261149
30	0xbf599699	-0.8499542
31	0x3f4d0b37	0.8009524
32	0x3f91b59e	1.138355
33	0xbf1e917d	-0.6194075
34	0x3f576c4f	0.8414964
35	0xbf9c80a8	-1.2226763
36	0xbf8a990f	-1.082796
37	0x3f3d693f	0.7398872
38	0x3ea55749	0.32293156
39	0x3f371aa1	0.7152501
40	0x3e1a4aa7	0.1506754
41	0xbd09695b	-0.03354774
42	0xbf2a2a9e	-0.6647128
43	0xbd5b819e	-0.05359041
44	0xbe0ba62d	-0.1363761
45	0x3fa998e7	1.3249787
46	0x3f4d649e	0.80231655
47	0x3fb6ae14	1.4271874
48	0x3eae51ad	0.3404669
49	0x3ea4a050	0.3215356
50	0x3dcb1318	0.09915751
51	0x3f876476	1.0577533
52	0x3fa52fb7	1.2905186
53	0xbf1514ff	-0.5823516
54	0x3fc0c715	1.5060755
55	0xbeffc403	-0.49954233
56	0xbe31073f	-0.1728792
57	0xbd03ce46	-0.03217914
58	0x3c2e8fa7	0.010654367
59	0x3e1bc971	0.15213563
60	0x3dcb5048	0.09927422
61	0xbe01cb4f	-0.12675212
62	0xbdb38d5a	-0.08767195
63	0xbd9efc14	-0.07762924

l2.bias f4 [8]
0	0xbe4faf40	-0.20281696
1	0x3ede2144	0.43384755
2	0xbe9af66f	-0.3026614
3	0x3d540d19	0.051770303
4	0x3e1b96f3	0.15194301
5	0x3ecc59a8	0.39912152
6	0x3f5c2b9a	0.8600403
7	0xbe82f508	-0.2557757

l3.weight f4 [7, 8]
0	0xbfbaf4cc	-1.4605956
1	0x3e5e0264	0.216806
2	0xbf1c5bff	-0.61077875
3	0xbfda1166	-1.703656
4	0xbfb7274b	-1.4308866
5	0x3f250c49	0.6447187
6	0x3f0599f0	0.52188015
7	0x3e469edd	0.19396539
8	0xbf89d5fe	-1.076843
9	0x3f1b4157	0.60646576
10	0xbe92f962	-0.2870589
11	0xbf2654b8	-0.6497302
12	0x3e96a09b	0.29419407
13	0x3dac752d	0.08420787
14	0xbe05d3ac	-0.13069028
15	0xbdfec438	-0.124397695
16	0x3ef5f12d	0.48035565
17	0x3e9e14e2	0.30875307
18	0x3f063198	0.52419424
19	0x3e49ee8e	0.19719908
20	0xbf4f214d	-0.8091019
21	0xbf254a23	-0.6456625
22	0xbef1988a	-0.4718669
23	0xbeb6a0e8	-0.35669637
24	0x3e095440	0.13411045
25	0xbf8eca95	-1.1155573
26	0xbf3b6ac0	-0.7320976
27	0x3e494b9f	0.19657753
28	0xbed84a1e	-0.42244047
29	0x3f12bcbc	0.57319236
30	0xbec559ac	-0.38544977
31	0x3ea0285a	0.31280786
32	0xbf4db61f	-0.8035602
33	0x3e8b9d0b	0.27268252
34	0xbef47048	-0.47741914
35	0x3e7ca856	0.2467359
36	0x3e9e1540	0.30875587
37	0x3e8d1a78	0.27559257
38	0xbf9e12cd	-1.2349488
39	0xbe2980ae	-0.16552994
40	0xbd30c057	-0.04315218
41	0xbfba12b5	-1.4536959
42	0xbdc853d5	-0.09781615
43	0x3ef8ab1a	0.4856804
44	0x3f1f27bd	0.6217001
45	0x3e9fdede	0.31224722
46	0xbfab242e	-1.3370416
47	0x3e9e6f8a	0.30944473
48	0x3f4b62c7	0.794476
49	0xbf1984b8	-0.5996814
50	0xbef135b0	-0.47111273
51	0xbf76f4b2	-0.96467125
52	0xbf1f6525	-0.6226371
53	0xbf96c14c	-1.177774
54	0x3f1fa273	0.6235725
55	0xbe26a862	-0.1627517

l3.bias f4 [7]
0	0x3f0db17d	0.5534895
1	0xbe90ae72	-0.2825809
2	0xbf04205d	-0.5161188
3	0x3e993cce	0.29929203
4	0xbec6da76	-0.38838547
5	0xbe2712b2	-0.16315725
6	0x3f054de5	0.5207198
